saved_agents/best123/reward_test.pt (torch, 42391 bytes, 5 tensors)

weight f4 [32, 236]
00000000: f09b 64bd 4e07 c2bd 236b 0ebd a524 06bc
00000010: 946d b5bd 5776 5cbd dff8 da3a e508 bfbd
00000020: 6f32 bdbd ab60 d43c 8905 dcbd 6679 5e3d
00000030: 088c ecbd 0385 85bd 00f3 51bd 6d8d 9bbd
00000040: 6ab7 6d3d d15f 02be f629 f3bd 5a4e 993c
00000050: 1e60 30be 9e15 27bd 03f2 f1bd c3eb adbc
00000060: 9b94 863d fbf7 25be 2924 2cbd e89f 0b3e
00000070: 3fa4 34be b26c 4d3d 9210 bfbd 902e 913d
00000080: b07d 8cbd f41f 5dbd 35ff ce3c b133 afbd
00000090: d474 a6bb e64f 433d 2156 c5bd a598 27bc
000000a0: 72ef 2abd 9c49 953d c796 023d 6466 3e3b
000000b0: 3ecf 34bd a078 0cbe 9476 6ebd ef3b 173d
000000c0: 1368 efbc 13c8 f7bc 3047 213b 52fd 853c
000000d0: 49fb 6dbc 52fc d6bd d493 b53d 05c7 86bd
000000e0: 5d36 abbd 5d24 0bbd ea0e 233d 3ab2 a6bc
000000f0: c5dc de3c 8cd9 90bc 06f4 01bd d72b 8abd
00000100: 1290 5b3c e00b c2bd 1d52 d13d d0fb 67bd
00000110: 9770 bebd ccf7 a3bd 7313 a5bd 46e5 dcbc
00000120: ab0c 00be 2a4c e0bd ed99 0fbd c0c9 8fbd
00000130: a124 383c 75d2 fbbd 1500 423d c664 00bd
00000140: c753 c4bd 31a0 2a3d 2381 213d e029 e5bd
00000150: 4b42 1d3d e838 cebd 64c7 b43a 2c5c 0bbe
00000160: 4fc4 00be a23c 023d f705 c7bc 05af 5c3c
00000170: e0c7 e73d 7831 83bd 66f3 773c fe15 aabc
00000180: 1611 d3bc cd93 f4ba de09 203d a1a9 5c3d
00000190: 81b5 0dbe eb42 f03b 18f2 043d 3b76 6dbd
000001a0: 5370 f3bc 1140 cfbc 8e6d 3fbd 7277 e5bd
000001b0: 6b2c 89bd a527 8dbd 48cd b0bc 91b3 57bd
000001c0: b14b 8f3d 9482 ad3d 21e4 70bd 2051 acbd
000001d0: 751f fbbc b88a 4abd 1147 29be 0d22 3c3d
000001e0: 42fa 0cbe 758e ea3d f0c7 a4bb 3357 0bbe
000001f0: 40a7 84bd 2536 dcbd a3fc 793c bd3c 0cbe
00000200: 435f a6bc b2e6 313d abb3 2fbe 1fe3 19bd
00000210: f57d cfbd c61a b8bc 52d3 a2bc e1a6 90bd
00000220: e33d 9bbd 0add 4d3d 4c01 c8bd 7ad4 1a3d
00000230: 4ed6 09be 4949 043e 6623 15be 5de8 00be
00000240: ea7a b93c 406f 01be 0d63 d2bd 8fc0 173e
00000250: fd06 05be 00c8 0d3d 1e2d 93bd 34c4 c23d
00000260: 0bf4 823c 845e 973c 9ba7 263d 606c dabd
00000270: 1568 b0bc 9f0c ce3d 3be4 003d 39a7 e23c
00000280: 63fb 363d cb3a 4ebd 23e2 b63c 7c38 b0bd
00000290: 8b99 743c 9b40 ccbc 4b99 e0bb 664d 1c3e
000002a0: 8876 63be b319 fd3c 7fac 483d d26a 6c3d
000002b0: 6ac1 ecbd 0a0a 31bc 940a d73c 5db7 c03d
000002c0: c484 fe3d bef3 97bc 6d2d 633d d086 01bd
000002d0: 4a5b 2b3c cc5f 9d3c 2624 edbc cacd 323e
000002e0: 097d 91bd 79d0 b1bd 4738 ae3d 3e1f 863d
000002f0: f45f 933d 1d4b b53d 1ac4 9abd 72bf 25be
00000300: 1494 173d ba54 66ba 30db a73d 6219 bc3c
00000310: afc7 b93d aa56 b23d dc55 1cbd 975b dd3d
00000320: 8d99 e53c 138d 5e3d 30ee 003e 0db6 103e
00000330: f570 a1bd 946f c7bc 5fdf 37bd 0ec8 c63c
00000340: 42f5 0a3d 1c75 fb3d 98c5 78bc 6db9 ce3d
00000350: 9a21 03bd 0d96 383c ca81 d0bc eb4a ad3d
00000360: e0e7 1c3d 41ae 1e3d 65a5 0bbb b2da 01bd
00000370: c7d7 443d 16cf 053d 09cf f1bc a390 0b3e
00000380: 3909 f03c 019c 9cbd 2acb 833c 7008 243e
00000390: 10b3 083d c074 6a3c 79a6 773d b477 a5bc
000003a0: a29c a53d 9320 063e 07f8 bb3d a182 133e
000003b0: 9222 8bbd 712c 383d 169a 93bc 20f9 6bbd
000003c0: 2284 05bd 3ca5 263e cc81 08bd f8f7 8fbc
000003d0: 5645 ee3d 8ec2 893b 99b6 803d 93bc 523d
000003e0: bd32 0e3d c448 093c c12e 283d c2dd a8bd
000003f0: 58c6 283d 685a da3b dfce 48bd 669e d43d
-0.055812776 -0.094740495 -0.034770142 -0.008187448 -0.08858791 -0.053823795 0.001670625 -0.09327868
-0.09238135 0.025925001 -0.10743243 0.054314993 -0.11550146 -0.065195106 -0.051257133 -0.07595334
0.058036245 -0.12731864 -0.11873238 0.018714119 -0.17224166 -0.0407921 -0.11813738 -0.021230584
0.06571313 -0.16207878 -0.042026673 0.13635218 -0.1764078 0.050152488 -0.093293324 0.07088959
-0.068599105 -0.05398555 0.025268177 -0.08554781 -0.005079845 0.04768362 -0.096355684 -0.010229264
-0.04173226 0.072894305 0.031882074 0.0029052729 -0.044142954 -0.1371789 -0.058218554 0.03692239
-0.029224431 -0.03024677 0.0024609081 0.016356144 -0.014525243 -0.10497345 0.088660866 -0.06580929
-0.08359978 -0.033970226 0.039809145 -0.020348657 0.02720488 -0.01768186 -0.03172686 -0.06746643
0.013401048 -0.09474921 0.1022074 -0.05663663 -0.092988186 -0.08006248 -0.0806035 -0.026964795
-0.12504832 -0.10952027 -0.035058904 -0.07020903 0.011239202 -0.12296001 0.04736336 -0.031346105
-0.09586292 0.041656677 0.039429795 -0.11189628 0.0383933 -0.10069448 0.0013792333 -0.1360938
-0.12574886 0.031796105 -0.024294836 0.013469462 0.1131742 -0.0640592 0.015133714 -0.02076244
-0.025764983 -0.0018659771 0.03907191 0.05387271 -0.1383877 0.007332196 0.03245744 -0.05797408
-0.029716646 -0.025299104 -0.04673534 -0.11204423 -0.06697925 -0.06892327 -0.02158226 -0.052661482
0.06996859 0.084721714 -0.05881131 -0.08413911 -0.030654648 -0.0494487 -0.16531016 0.04593091
-0.13767341 0.11452953 -0.005028717 -0.13607483 -0.06477213 -0.10752515 0.015257987 -0.13695045
-0.020309096 0.0434329 -0.17158382 -0.037570115 -0.10131446 -0.022473704 -0.019876156 -0.070630796
-0.07580163 0.050259627 -0.09765872 0.03780029 -0.13460657 0.12918581 -0.14564285 -0.1258864
0.022641618 -0.12640095 -0.10272799 0.14819549 -0.12990947 0.034614563 -0.0718634 0.09510079
0.01598551 0.018477686 0.040687185 -0.10665202 -0.021534005 0.10061001 0.031467658 0.027667629
0.044673335 -0.050349038 0.022324627 -0.086045235 0.014929186 -0.02493315 -0.0068542114 0.152639
-0.22213185 0.030896043 0.04899263 0.05771906 -0.11560328 -0.010805616 0.026250161 0.09409974
0.12427667 -0.018548843 0.055463243 -0.031622708 0.010458777 0.019210719 -0.028947901 0.17461315
-0.07103927 -0.08682341 0.08506828 0.06548928 0.07196036 0.08852217 -0.07556935 -0.16186312
0.037006453 -0.0008786429 0.081961036 0.022961322 0.0907129 0.08707936 -0.03816782 0.10808485
0.02802732 0.054333758 0.12590861 0.14131947 -0.07882873 -0.024345197 -0.044890758 0.024265315
0.033925302 0.12278196 -0.015183829 0.10093961 -0.032014467 0.011266244 -0.025452513 0.08461555
0.03830707 0.0387404 -0.00213083 -0.031702705 0.048057344 0.032668196 -0.029517667 0.13629393
0.029301273 -0.07646943 0.016088087 0.16018844 0.033373892 0.014310062 0.060461495 -0.02019868
0.08086516 0.13098364 0.09178167 0.144053 -0.06793703 0.044964258 -0.01801781 -0.05761063
-0.032596715 0.1627397 -0.03332691 -0.017574295 0.116343185 0.004204101 0.06284828 0.05144937
0.034716357 0.008379165 0.041060213 -0.08245422 0.04120478 0.0066636093 -0.049025413 0.103817746

bias f4 [32]
00000000: d067 97bc c0b6 633d e6b3 d7bc 6a74 b5bd
00000010: 026b 4d3d 918c 6dbc d6fc 3a3d e87a dd3d
00000020: 1dbf 64bb 72e7 14bd 7b9a 7f3d 0650 ad3d
00000030: 7b2d 8ebd 6750 8a3d 54e3 42bd ac35 7b3d
00000040: f0fa 8f3d 71bb 44bc 790f debc b3a0 7fba
00000050: bab5 093d a984 263d bdb1 763d d52f 83bd
00000060: e7f6 fc3c 70b6 863d 1fca 0abc cce8 0abd
00000070: 1a1b 673d eed2 d1bc 965a f73b bdf8 133d
-0.018482119 0.055594206 -0.0263309 -0.08860095 0.05015088 -0.014498846 0.04565128 0.10814458
-0.0034903951 -0.036353536 0.062403183 0.08462529 -0.069422685 0.06753617 -0.04758008 0.061330482
0.070302844 -0.01200758 -0.027106987 -0.0009751424 0.033620574 0.04065386 0.0602281 -0.064056076
0.030879451 0.06577766 -0.008471041 -0.03391342 0.05642233 -0.025613274 0.0075486405 0.036125887

weight f4 [32, 32]
00000000: 326d bf3d bc04 3b3e 56da c9bc a121 57be
00000010: 5aac ce3d 864d 883d 1fcd 5d3e 10e2 4fbd
00000020: b532 273e f294 31bd 6c8a 483e 75b8 b73e
00000030: 5fba e1bd c031 893e bbba d7be 474d fd3d
00000040: 3c78 073e b2f4 903e 74f5 12be 79c3 e6bc
00000050: d011 13be 9eb4 563e 50d3 45bd 2fa2 333d
00000060: 7319 d93b cf14 123e fd36 e93d c984 92bd
00000070: 8a2e 523e 4c8f 6fbe 3c9e 693e af39 28be
00000080: a7d0 90bd d789 14be 3a3c e23d a38e 353e
00000090: 7268 1ebe ca75 12bd 8296 1cbd 508b e3bd
000000a0: 7d25 113e 2ffe ccbc a7d7 d53b bd3c 9cbe
000000b0: e7d6 8c3d e55d 1fbe 7977 9d3e ec2d 353e
000000c0: 9d10 99be 0b53 c6be 4240 16be f0bd 8cbe
000000d0: 37b1 223e 5ec0 98be c986 6c3d 788e 22be
000000e0: bbca 363e 410c 193d 9bdf 9ebd a22a 783e
000000f0: 8e71 40be 6ac3 803e 4430 4fbd 2db8 823e
00000100: 5305 99be 200a dfbc 459b db3c 4757 de3d
00000110: dc2d 4d3d 8850 e5bd f312 1cbd 80a5 72bb
00000120: 5980 233e 666b 67bd d7c1 b6bb af6a 7bbe
00000130: 2c0a 7b3e bafd 6ebe c855 973e e076 64be
00000140: 7318 febd e68b c0be 3796 c2bd 5342 2dbe
00000150: 2839 073e aacc 02be d8f5 5cbe 965c a3be
00000160: 10c9 433e 935c 183e 91e7 3ebe d2f8 ad3e
00000170: b20d c9bd d1ac 533e 04fc bd3d c14c 77be
00000180: 9ae0 01bc a269 243d b934 25be 102a 43bd
00000190: a7b2 803c a65f 80bd e936 903b 3c2c 1dbe
000001a0: 1cee debd a7ed 9ebd d373 fcbd 0736 36bd
000001b0: fb00 10be e11f 1fbe fd70 4d3d 26a0 96bd
000001c0: 43e4 083e 84f8 75bb f061 ccbc 5997 e63d
000001d0: 58fa a23d dcd6 493d 4977 623d 1fc7 a83d
000001e0: b62e 0abe d1eb 9a3c 3bf8 fe3c 79dd 383c
000001f0: ee96 abbd 37d9 d2bc d35a 2ebe 300e 1f3d
00000200: 924f 6cbe 8689 a83d 9658 3c3e f4df 5b3d
00000210: 1271 f83d 5db8 d2be 3aa9 e5bc 4d80 88bc
00000220: bbb2 673e 1bdd 343e 9904 b73d d12a a7be
00000230: 5b71 693e 1aeb 7fbe cd54 d03e 14a3 aa3d
00000240: eb30 38bd 484f b3be aba9 ca3d 8220 a6bd
00000250: c655 7b3e 370c 70be 7499 a1bd f679 cbbd
00000260: 4182 bcbb be89 a33c 063c 06bc 284f d23e
00000270: 8b94 6abe dddc 7a3d 775f 2abe 8d28 953e
00000280: cdb2 0b3e 0bd7 c2bd 75a8 c4bd 7a68 8fbd
00000290: cf6a 76bd 0f18 d7bd f642 81bc 849e 0e3e
000002a0: 8d55 763c 5c15 1dbd 54c2 2bbe 96d8 8d3b
000002b0: 01ba e1bc c49d 353e 13f9 e53d ee78 533c
000002c0: 5a26 e3bc 37bb a7bd 4769 113e e2f4 193e
000002d0: 3894 21be 52df fd3c b329 163d 354d 1b3e
000002e0: b216 22be 90de e9bd 4d05 8b3d fd38 f0bc
000002f0: 669f 7a3d c8e7 aabd eeb9 0dbe 1405 2ebe
00000300: 35ef 4dbe 799e 363d 26de 603e 8456 003e
00000310: a522 88be cb68 9bbd 7af8 8dbc 5176 a43d
00000320: 9f2f bfbd d511 97bd 9ae4 18be 8788 f4bd
00000330: 3f62 a3bc 38e0 a8be c47e 013f f1fb d1bd
00000340: 5849 8fbe 5a0b 3dbe e6e0 ae3b adb6 6fbc
00000350: 00d4 5c3e 450c 74be 8501 d6bd e9f3 aebd
00000360: 0bca d33d f836 393c 4502 b63d 830e cc3e
00000370: 4de5 a13d cd49 d73d a573 c8bd d03c a5be
00000380: 1f8f 74be b485 a13d e3bd 9f3d 7a3e 783e
00000390: 2f6e 873d 0a5a 64bd 2ec1 88be e5df 17be
000003a0: fd5e 0e3e 581e b7bc c0a9 f53d 559b c5be
000003b0: ae5b 093d a71d 5dbc e9b1 bc3e c155 16be
000003c0: db81 3bbe 86a4 c1be 3cfb 0dbe 40a3 02be
000003d0: ef91 4c3e e5bc 97bd 0511 14be 6671 01be
000003e0: 017b 213e b412 c83c ca28 bbbd f4df b83e
000003f0: 2a89 b63c 87d4 5abd d243 7ebe fa82 c93d
0.09346999 0.18263525 -0.024640244 -0.21008922 0.10091467 0.066554114 0.21660279 -0.0507527
0.16327937 -0.043354936 0.19584054 0.35882917 -0.110218756 0.2679577 -0.42134652 0.12368255
0.1322946 0.28311688 -0.14351445 -0.02816938 -0.14362264 0.20967337 -0.048297226 0.043855842
0.0066253482 0.1426575 0.11387441 -0.07154233 0.20525566 -0.23394507 0.22814268 -0.16428255
-0.07071047 -0.14505707 0.110466436 0.17730193 -0.1546953 -0.035756864 -0.038229473 -0.11110556
0.14174457 -0.025023548 0.006525952 -0.3051509 0.06876927 -0.15563162 0.30755213 0.17693299
-0.29895487 -0.38735232 -0.1467295 -0.2748866 0.15887915 -0.29834265 0.05774573 -0.1587466
0.17850773 0.0373652 -0.07757493 0.24235013 -0.18793318 0.2514909 -0.05058314 0.2553114
-0.29886875 -0.027226508 0.026807437 0.108564906 0.050092563 -0.11197001 -0.03810401 -0.0037024915
0.1596693 -0.056498908 -0.0055773067 -0.24552415 0.24515599 -0.23338977 0.29557633 -0.22310972
-0.12407007 -0.37606734 -0.095013075 -0.16919832 0.13205397 -0.12773386 -0.21578157 -0.31906575
0.19119668 0.14879064 -0.18643023 0.33978897 -0.09817065 0.20671393 0.09276584 -0.24150373
-0.007927084 0.0401398 -0.16133393 -0.047647536 0.015710188 -0.062682435 0.004401077 -0.15348905
-0.108852595 -0.07760172 -0.12326779 -0.04448512 -0.14062874 -0.15539505 0.050156582 -0.07354765
0.13368325 -0.003753216 -0.024949044 0.11259336 0.079579055 0.04927717 0.05528954 0.08241104
-0.13494381 0.018911274 0.031124225 0.011283272 -0.08378397 -0.025738342 -0.17026834 0.03883189
-0.23077229 0.082293555 0.18393168 0.053680375 0.121309415 -0.41156283 -0.028034795 -0.016662741
0.22626774 0.1766247 0.08936424 -0.32649854 0.22797148 -0.24992028 0.40689698 0.08331886
-0.044968527 -0.35021424 0.09895643 -0.08111669 0.24544439 -0.2344216 -0.07890597 -0.099353716
-0.005752832 0.019963142 -0.008193022 0.41076016 -0.22908227 0.061245788 -0.1663798 0.291325
0.13642426 -0.095136724 -0.09602443 -0.07002349 -0.060160454 -0.10502636 -0.015779 0.13927656
0.015035045 -0.038350448 -0.16773349 0.0043287976 -0.027554514 0.17735964 0.11229148 0.01290725
-0.027728248 -0.08190005 0.14200316 0.15034822 -0.15779197 0.030990276 0.03666086 0.15166171
-0.1582897 -0.114194036 0.067881204 -0.02932405 0.06118717 -0.0834499 -0.13840458 -0.16994125
-0.20110781 0.044584725 0.21959743 0.12533003 -0.26588932 -0.07588347 -0.017330397 0.080303796
-0.09335255 -0.07376448 -0.14930955 -0.11940103 -0.019944308 -0.32983565 0.50584054 -0.10253132
-0.27985644 -0.18461362 0.0053368686 -0.014630956 0.21565247 -0.23832805 -0.104495086 -0.08542616
0.10341271 0.0113046095 0.08887152 0.39854822 0.07905064 0.10512123 -0.097876824 -0.3227296
-0.23882721 0.0788683 0.0779989 0.24242583 0.06612813 -0.05574993 -0.26709884 -0.14831503
0.13903423 -0.022353336 0.11995268 -0.3859507 0.0335347 -0.013495839 0.36854485 -0.1468115
-0.18311255 -0.37820834 -0.1386537 -0.12757587 0.19977544 -0.07409076 -0.14459617 -0.12640914
0.15769579 0.02442298 -0.09138639 0.36108363 0.022282202 -0.053425338 -0.24830559 0.09839435

bias f4 [32]
00000000: 8f67 843d a0d6 a1bc cf3e c5bd 98bb bcbd
00000010: 192f 393d 5555 22bd 7a55 96bd bfc3 febd
00000020: 3391 53be f6be 4fbd 586f 283c 5fc9 28bd
00000030: 1b75 ce3d b634 5c3d 118a 093e 3ca0 173e
00000040: 7162 a5bc a518 2c3d 13db 68bd ff74 afbd
00000050: 6629 b33d 411f 163e f219 1b3e 9016 fa3d
00000060: e673 723c 9b26 fbbc 2776 9abb 5856 37bd
00000070: b7ae 6f3e a899 7f3c 29ba 8bbd 6d70 b5bd
0.06465065 -0.019755661 -0.096311204 -0.09215468 0.04521093 -0.03963216 -0.07340522 -0.12439679
-0.20660858 -0.050719224 0.010280453 -0.041207667 0.1008093 0.053761207 0.13431574 0.14807218
-0.020188542 0.04201569 -0.05684955 -0.08567237 0.087481305 0.1466036 0.15146616 0.12211335
0.01479814 -0.030658057 -0.004713792 -0.04476008 0.23406492 0.015600599 -0.068226166 -0.08859334

weight f4 [1, 32]
00000000: b7ad 233e a58e 6dbe 621d 88be 7ae1 c83c
00000010: 3d24 56be df1b 6f3d 743a babe 248c 91be
00000020: 48fc 7fbd 082b 9c3e b52d ff3d 288e 513d
00000030: cc76 443e 6cdd 5dbe cb9a 913e 404e 983e
00000040: 1beb 823e 3e78 e53d 14d7 83be bd63 7dbe
00000050: 216d 823e 434f 813e 40f7 8b3e 6c12 923e
00000060: 793b b9be 7dea c4be d721 513e 2a1b 853e
00000070: 04bf 73be b52b 83be d395 a1bd 7f17 c33c
0.15984236 -0.23198946 -0.26584917 0.024521578 -0.20912261 0.05837619 -0.3637272 -0.2842723
-0.062496454 0.3050158 0.1245989 0.05116096 0.19185942 -0.21666497 0.2843841 0.297472
0.25569996 0.11204575 -0.2575003 -0.24745078 0.25473884 0.25255784 0.27337074 0.2852968
-0.36178187 -0.3846015 0.20423065 0.25997287 -0.23803335 -0.25619283 -0.07889905 0.023814915
