saved_agents/best234/reward_test.pt (torch, 42391 bytes, 5 tensors)

weight f4 [32, 236]
-0.03980785 -0.08099296 -0.06542891 -0.028713023 -0.121293135 -0.051988877 -0.101750374 -0.09332823
-0.12750982 0.00056287315 -0.10536505 0.059118588 0.090787254 -0.12776423 -0.0032430405 0.11953181
-0.11129114 0.021438159 0.07549571 -0.0931392 0.11371297 -0.092734724 -0.024517812 -0.01785915
0.12990792 -0.12621373 0.09183217 -0.12476325 -0.12428654 0.124613784 0.11698504 -0.010239916
0.08905035 0.10774537 -0.06513784 0.009704967 0.046968784 0.01760218 0.028018642 0.036378276
-0.05216039 0.0014483564 0.06722542 -0.08379015 0.068233036 0.037337236 0.082978055 0.11515414
-0.093185976 -0.044847753 -0.019210033 -0.074327335 0.07129792 0.19013144 0.20790817 0.007876342
-0.17083521 -0.0039461288 -0.052749816 -0.15996096 -0.12179783 0.020335775 -0.10518272 -0.053791888
0.059752673 -0.1626245 -0.021745447 0.027793616 -0.18416971 0.034637842 0.14091742 -0.002656381
0.055492174 0.07662891 -0.06976186 0.0870212 -0.047668286 -0.061687447 -0.025898067 0.069032796
-0.15102793 0.043656677 -0.07153152 -0.08250581 0.012696512 0.07257052 0.022034183 0.024450004
0.026975725 -0.034405876 -0.019621816 0.104392275 -0.026656937 0.09395758 0.0062260064 0.032407742
0.045310088 0.026552305 0.028046826 -0.011205145 0.041961957 0.066928945 0.07464121 -0.115661055
-0.045375966 -0.02674667 -0.06607801 0.09172133 0.16788866 0.1612301 -0.028345395 -0.045322135
-0.06683628 -0.055049647 -0.12860174 -0.0997907 -0.08613148 -0.10447514 -0.21334723 0.10495327
-0.03942313 -0.049412295 0.09483609 -0.0858358 0.05658853 0.10085159 -0.104391895 0.08417252
0.015984576 -0.05329924 0.108493276 -0.011509998 -0.10233568 -0.04068566 0.04922316 -0.058166705
0.116109304 -0.055320486 -0.13272506 0.0099879615 0.07787573 -0.034270313 -0.015903788 0.076263756
-0.043507237 0.030590948 0.15526226 0.026784346 0.024426091 0.03183983 0.019154064 0.0077155284
0.060629018 -0.053126715 -0.022421801 0.0066097043 0.12969181 0.15812176 -0.08880748 -0.020523937
-0.050650854 -0.051619094 0.20201513 0.09896592 0.27852678 0.19567735 0.05594986 0.038053833
-0.27256727 -0.013643322 0.055689316 0.028400416 0.064142644 -0.0024845018 -0.043608546 0.03608706
-0.1018703 -0.0029359185 0.11941017 0.09057734 0.060761657 0.05649577 0.05363371 0.27029708
-0.06968019 0.064269185 0.16859017 0.06702412 -0.054782107 0.14669745 -0.06526081 -0.030896708
0.124727145 0.12282307 0.09144683 -0.09639102 0.0041252244 -0.052633777 -0.027197132 -0.01690937
-0.041053712 0.023668759 0.10583214 0.065050215 0.06629556 0.014879771 0.009336226 -0.009783276
0.06327822 -0.010278796 0.04793203 -0.06741162 -0.13126752 0.13394664 -0.08327741 0.15189865
0.07499623 -0.0787647 0.08706918 0.09976097 0.1945147 0.05544471 0.015488066 0.07850904
0.1398548 0.011146542 0.12918603 -0.014873157 0.26938114 -0.029489547 0.14372194 0.060018785
0.028116575 0.0728479 -0.004953303 0.17147109 0.03486283 0.059691247 0.04299968 -0.045005456
-0.018794732 -0.016703453 0.00083355064 0.013187252 -0.040941376 -0.06463536 -0.033686105 -0.041756615
-0.014427903 -0.05327342 0.03848018 -0.032114394 0.0027395512 0.047185536 0.02953027 -0.0444491
00000000: 8e0d 23bd a3df a5bd 98ff 85bd 9337 ebbc
00000010: 8968 f8bd 4af2 54bd 8062 d0bd df22 bfbd
00000020: ef91 02be c78d 133a a2c9 d7bd 5526 723d
00000030: abee b93d a0d4 02be 3189 54bb 18cd f43d
00000040: 9cec e3bd 149f af3c 7f9d 9a3d c4bf bebd
00000050: 58e2 e83d b4eb bdbd 94d9 c8bc 5a4d 92bc
00000060: 9506 053e 2c3e 01be 8112 bc3d e083 ffbd
00000070: f189 febd 8335 ff3d da95 ef3d 52c5 27bc
00000080: 0860 b63d 9ba9 dc3d fd66 85bd 9501 1f3c
00000090: 5762 403d 7232 903c 5a87 e53c 6301 153d
000000a0: 22a6 55bd c7d6 bd3a 7bad 893d 2c9a abbd
000000b0: c3bd 8b3d eeee 183d 66f0 a93d efd5 eb3d
000000c0: 4ad8 bebd 47b2 37bd 5c5e 9dbc ee38 98bd
000000d0: a504 923d d1b1 423e e1e5 543e c60b 013c
000000e0: 6def 2ebe 874e 81bb 3110 58bd cecc 23be
000000f0: 2471 f9bd 3697 a63c 0a6a d7bd e254 5cbd
00000100: 38bf 743d 0987 26be 8223 b2bc 70af e33c
00000110: fc96 3cbe 69e0 0d3d a84c 103e ae16 2ebb
00000120: c34b 633d 9eef 9c3d 4edf 8ebd 2c38 b23d
00000130: d23f 43bd faab 7cbd 2f28 d4bc 1161 8d3d
00000140: 11a7 1abe 58d1 323d 1e7f 92bd cef8 a8bd
00000150: 0805 503c da9f 943d 0881 b43c 604b c83c
00000160: 32fc dc3c 2ded 0cbd eebd a0bc 9ecb d53d
00000170: a65f dabc d56c c03d 8703 cc3b fbbd 043d
00000180: 1297 393d 3884 d93c 75c2 e53c c995 37bc
00000190: 4de0 2b3d 0b12 893d 7edd 983d b4df ecbd
000001a0: 26dc 39bd d51b dbbc e853 87bd 65d8 bb3d
000001b0: 01eb 2b3e 8119 253e 9a34 e8bc b4a3 39bd
000001c0: 76e1 88bd bd7b 61bd 2db0 03be 115f ccbd
000001d0: b465 b0bd 10f7 d5bd b277 5abe bdf1 d63d
000001e0: 267a 21bd 8c64 4abd 6d39 c23d aeca afbd
000001f0: 60c9 673d 478b ce3d 6bcb d5bd a462 ac3d
00000200: 16f2 823c 4e50 5abd b931 de3d 6e94 3cbc
00000210: 5e95 d1bd 02a6 26bd 399e 493d 3640 6ebd
00000220: b7ca ed3d bc97 62bd 14e9 07be 8ca4 233c
00000230: 507d 9f3d 075f 0cbd a948 82bc 2c30 9c3d
00000240: a534 32bd de99 fa3c 12fd 1e3e d86a db3c
00000250: 3a19 c83c 7b6a 023d fce8 9c3c 8bd2 fc3b
00000260: 2256 783d 669b 59bd edad b7bc 3896 d83b
00000270: eecd 043e acea 213e b2e0 b5bd d121 a8bc
00000280: 4577 4fbd 8b6e 53bd 0edd 4e3e a5ae ca3d
00000290: 109b 8e3e a55f 483e ae2b 653d 56de 1b3d
000002a0: f08d 8bbe 3d88 5fbc 7b1a 643d fda7 e83c
000002b0: 385d 833d 06d3 22bb e09e 32bd 06d0 133d
000002c0: 60a1 d0bd 8a68 40bb 528d f43d 9d80 b93d
000002d0: 37e1 783d 1c68 673d 05af 5b3d 6164 8a3e
000002e0: 7db4 8ebd 909f 833d e7a2 2c3e f143 893d
000002f0: 3463 60bd db37 163e 76a7 85bd 181b fdbc
00000300: f270 ff3d a98a fb3d 7a48 bb3d a868 c5bd
00000310: e42c 873b 8496 57bd 85cc debc 8585 8abc
00000320: f027 28bd fce4 c13c 85be d83d 0c39 853d
00000330: f7c5 873d 48ca 733c f8f6 183c 094a 20bc
00000340: 0398 813d 6568 28bc 6054 443d 1a0f 8abd
00000350: fe6a 06be 4f29 093e 598d aabd 528b 1b3e
00000360: a097 993d 634f a1bd 5451 b23d 7b4f cc3d
00000370: dd2e 473e fe19 633d a8c1 7d3c 59c9 a03d
00000380: 1936 0f3e fc9f 363c 5849 043e 8bae 73bc
00000390: 53ec 893e 1094 f1bc d82b 133e 42d6 753d
000003a0: bb54 e63c 4831 953d 514f a2bb 1e96 2f3e
000003b0: 54cc 0e3d cf7e 743d 6f20 303d a457 38bd
000003c0: 69f7 99bc aed5 88bc a382 5a3a 580f 583c
000003d0: 25b2 27bd 8b5f 84bd 71fa 09bd fc08 2bbd
000003e0: 0363 6cbc 3b35 5abd 659d 1d3d 628a 03bd
000003f0: 0b8a 333b 9f45 413d 77e9 f13c 4210 36bd

bias f4 [32]
0.07685564 -0.026526619 0.04571145 0.07451078 0.03732185 0.011986256 0.05958031 0.0202321
0.053730335 0.11113941 0.010247004 0.09369845 -0.04308615 -0.08160399 -0.014259184 -0.08708634
-0.10297072 -0.02861056 0.07650284 -0.016051458 0.024566349 -0.07159327 0.004458291 -0.04224224
-0.07113173 0.08666051 0.009793581 0.025957348 0.12369715 0.020275548 -0.015812723 0.018405873
00000000: 7d66 9d3d 5a4e d9bc ee3b 3b3d 1c99 983d
00000010: ccde 183d 0062 443c 7c0a 743d cabd a53c
00000020: 5714 5c3d 0f9d e33d 0de3 273c f9e4 bf3d
00000030: 1a7b 30bd fe1f a7bd 5a9f 69bc 535a b2bd
00000040: 50e2 d2bd b160 eabc 85ad 9c3d 597e 83bc
00000050: 5e3f c93c 7e9f 92bd db16 923b 3306 2dbd
00000060: 83ad 91bd 117b b13d 4275 203c 81a4 d43c
00000070: ee54 fd3d e818 a63c af89 81bc eac7 963c

weight f4 [32, 32]
0.014569976 0.102732934 -0.028210528 0.043303683 0.04570352 -0.30279195 0.27569288 -0.068445414
0.13150033 0.042650554 0.1482825 0.1296654 0.2887725 0.08303149 -0.13878493 0.03800791
0.2958767 0.212177 -0.081256285 0.22405095 -0.06183603 0.23166049 0.08425829 0.16266538
0.034708146 -0.28181666 -0.23093188 0.070865 -0.08036609 0.048940983 0.2790322 0.19665353
0.064128 -0.035243727 0.16678198 0.20806855 -0.07244156 0.13190384 -0.08694787 -0.14203252
0.22524698 0.15394828 0.18746932 0.2014144 -0.12931456 -0.09890089 0.2682181 -0.35340905
-0.11334871 0.038443457 0.16712686 -0.02415398 -0.08407832 -0.2224449 0.1663911 -0.14426227
-0.20190638 0.38217974 0.08128789 -0.14795011 0.058250517 0.14555766 -0.16494508 -0.1792668
-0.010957094 -0.13875806 0.03015721 0.043855865 -0.03758754 -0.08123841 -0.06377951 -0.10031328
-0.04612712 -0.16228731 0.14675753 -0.08898961 -0.12964326 0.12760936 0.06534382 -0.037731543
-0.098245315 -0.075102575 0.120852835 -0.003908787 0.13985962 -0.0824911 0.0782419 -0.12652025
0.008504402 0.08928812 -0.016530879 0.087929055 -0.048972983 -0.027369516 -0.13860103 -0.08790371
-0.078760594 -0.1539826 -0.09282802 -0.14467376 -0.051114433 -0.04038937 -0.07013582 0.023398919
-0.07735368 -0.111889 -0.06639258 -0.18508571 -0.073375694 -0.029331809 0.15819348 -0.14160283
-0.1755092 0.13166828 0.07437594 -0.069045424 -0.14428133 0.03118807 -0.043609165 0.093725
-0.16275488 0.07700557 -0.16498443 0.0159752 -0.04172977 0.035329707 -0.12136849 0.11121139
0.18416758 -0.15649122 -0.023245772 0.116474904 -0.14029787 0.22167584 -0.030134337 -0.035475485
0.23937038 -0.005993034 0.15714939 0.074563384 -0.16901256 -0.13154785 0.18759657 -0.27744642
-0.08185341 0.02889219 0.021333542 -0.10184927 0.11336385 -0.18038139 -0.06241781 0.0169514
-0.038692787 0.44775245 0.011995346 -0.0072991657 0.09727551 0.23850158 -0.3143786 0.106126025
-0.045825765 0.04891466 0.12883475 -0.20948812 0.12984838 -0.16491061 -0.04555464 -0.1608452
-0.19394776 0.020259395 -0.14838015 -0.009705918 0.0024380104 0.019684564 -0.0005336353 -0.097775444
-0.068391174 -0.0396854 0.15139735 0.08783523 -0.19021747 0.012082613 -0.015834818 -0.14648488
-0.09087243 -0.15229733 -0.1514482 0.093713194 -0.19165412 0.13883872 0.02794975 -0.085795105
-0.081264496 -0.18326257 -0.2737947 0.09381562 0.0807198 -0.19082657 0.1717824 -0.14553908
-0.17190716 -0.21975514 0.105982535 -0.06675985 0.1838427 0.25638768 -0.16059731 0.27322283
0.11203135 0.0656575 -0.24630451 0.22697067 0.082424074 0.30867428 -0.100351214 -0.0976497
0.060929265 -0.1338372 -0.35146058 -0.17461157 -0.29900107 -0.054450974 -0.050399408 0.22954848
0.19116521 -0.03336424 -0.0070835073 0.0752032 0.14810191 0.14743581 -0.0543954 -0.09983862
0.19860087 0.16154519 0.032451518 -0.08032302 0.11257557 -0.10859321 0.13065633 -0.13732375
-0.22688174 0.08244897 0.29878575 -0.22751045 0.047797214 -0.22557749 -0.023286622 -0.22107969
-0.12932973 0.20854597 0.17783836 -0.0416717 0.023832168 -0.0053405985 -0.3232989 -0.08755386
00000000: e9b6 6e3c a565 d23d c419 e7bc 345f 313d
00000010: 9d33 3b3d 8c07 9bbe 9e27 8d3e 1c2d 8cbd
00000020: 06a8 063e 59b2 2e3d 5ed7 173e 02c7 043e
00000030: fdd9 933e 6a0c aa3d a31d 0ebe 2fae 1b3d
00000040: 277d 973e ed44 593e b269 a6bd 9d6d 653e
00000050: c747 7dbd 6838 6d3e 9c8f ac3d c191 263e
00000060: 212a 0e3d 464a 90be 6879 6cbe ab21 913d
00000070: fa96 a4bd 5776 483d 4fdd 8e3e 8b5f 493e
00000080: 8a55 833d ba5b 10bd e5c8 2a3e ec0f 553e
00000090: 3e5c 94bd cd11 073e ba11 b2bd f970 11be
000000a0: 25a7 663e 9ea4 1d3e f5f7 3f3e 943f 4e3e
000000b0: 096b 04be 8d8c cabd e253 893e 08f2 b4be
000000c0: 5e23 e8bd e376 1d3d 4e23 2b3e 91de c5bc
000000d0: 4131 acbd 99c8 63be 6e62 2a3e 7db9 13be
000000e0: 8cc0 4ebe 10ad c33e 447a a63d 3c80 17be
000000f0: 1898 6e3d 110d 153e 5de7 28be b791 37be
00000100: 6285 33bc 9816 0ebe 410c f73c 35a2 333d
00000110: 64f5 19bd 5360 a6bd d59e 82bd 0d71 cdbd
00000120: caef 3cbd a52e 26be 9b47 163e 2f40 b6bd
00000130: 34c1 04be 07ac 023e fbd2 853d 648c 1abd
00000140: d734 c9bd 61cf 99bd b181 f73d 4815 80bb
00000150: 5c37 0f3e 18f1 a8bd 4a3d a03d 868e 01be
00000160: 0c56 0b3c b1dc b63d c46b 87bc 2614 b43d
00000170: e597 48bd 0936 e0bc 6eed 0dbe dc06 b4bd
00000180: 3c4d a1bd 9dad 1dbe 9e1c bebd 5c25 14be
00000190: 5e5d 51bd 536f 25bd 5ea3 8fbd 17af bf3c
000001a0: 9b6b 9ebd 0f26 e5bd d5f8 87bd 1c87 3dbe
000001b0: ff45 96bd 4349 f0bc 79fd 213e 5500 11be
000001c0: afb8 33be 0dd4 063e 6a52 983d b067 8dbd
000001d0: 7cbe 13be 207e ff3c 869f 32bd e5f2 bf3d
000001e0: 37a9 26be 19b5 9d3d aef1 28be 6cde 823c
000001f0: d6ec 2abd e2b5 103d 0b90 f8bd ccc2 e33d
00000200: 6d96 3c3e 3c3f 20be eb6d bebc 658a ee3d
00000210: 3faa 0fbe fefe 623e 49dc f6bc be4e 11bd
00000220: 821d 753e 3761 c4bb c5eb 203e b0b4 983d
00000230: a111 2dbe 7bb4 06be 5119 403e 750d 8ebe
00000240: c3a2 a7bd 50af ec3c aec3 ae3c 5a96 d0bd
00000250: 4e2b e83d e6b5 38be d1a9 7fbd aadd 8a3c
00000260: 547c 1ebd cf3f e53e 2188 443c d72d efbb
00000270: 6238 c73d c239 743e 3bf6 a0be 9a58 d93d
00000280: ccb3 3bbd bd5a 483d 42ed 033e 0e84 56be
00000290: f9f6 043e 54de 28be 8197 3abd 9bb4 24be
000002a0: 3e9a 46be 08f7 a53c f7f0 17be 9205 1fbc
000002b0: 07c7 1f3b 8641 a13c a9e3 0bba 7e3e c8bd
000002c0: ac10 8cbd 288d 22bd e807 1b3e f5e2 b33d
000002d0: 5ec8 42be 27f6 453c 05b8 81bc 2200 16be
000002e0: 531b babd d5f3 1bbe 3d15 1bbe b4ec bf3d
000002f0: fa40 44be bd2b 0e3e e0f6 e43c 58b5 afbd
00000300: 006e a6bd 2fa9 3bbe d22e 8cbe 6722 c03d
00000310: 6c50 a53d 0a68 43be bae7 2f3e 3208 15be
00000320: 6e08 30be 7e07 61be 5f0d d93d 63b9 88bd
00000330: 4341 3c3e 3f45 833e 9f73 24be dde3 8b3e
00000340: b170 e53d 7077 863d 4037 7cbe 006b 683e
00000350: f4cd a83d 8e0a 9e3e f084 cdbd 91fc c7bd
00000360: f790 793d 9e0c 09be a4f2 b3be 60cd 32be
00000370: ab16 99be fc07 5fbd 9c6f 4ebd c20e 6b3e
00000380: d0c0 433e f1a8 08bd c41c e8bb 2304 9a3d
00000390: 07a8 173e 6af9 163e b6cd 5ebd 3178 ccbd
000003a0: 075e 4b3e 1a6c 253e e2eb 043d 6580 a4bd
000003b0: 058e e63d 1e66 debd c6ca 053e 999e 0cbe
000003c0: b053 68be 01db a83d 72fa 983e 80f8 68be
000003d0: 03c7 433d c9fd 66be 96c3 bebc b762 62be
000003e0: 036f 04be 138d 553e 421b 363e f2af 2abd
000003f0: ae3b c33c 3000 afbb 6f87 a5be 704f b3bd

bias f4 [32]
0.011184184 0.20612 -0.04218607 0.0017269163 0.22474357 0.14533752 -0.022686008 0.19515666
-0.019363217 0.18594679 -0.11263988 0.087539464 -0.03228269 0.1764333 -0.07301539 0.19991858
0.21419522 0.18849346 0.1383026 0.0031435594 -0.16779324 0.09553042 -0.025419213 -0.13539878
0.1999622 -0.10093719 0.1319636 0.12293318 0.1292916 0.100502655 -0.053228695 0.054057382
00000000: de3d 373c 1f11 533e 4dcb 2cbd b259 e23a
00000010: 2e23 663e 5cd3 143e 02d8 b9bc 26d7 473e
00000020: 9c9f 9ebc d668 3e3e bdaf e6bd e447 b33d
00000030: db3a 04bd eeaa 343e 1889 95bd 75b7 4c3e
00000040: fe55 5b3e 6e04 413e 329f 0d3e 2d04 4e3b
00000050: fed1 2bbe 74a5 c33d f43b d0bc faa5 0abe
00000060: e4c2 4c3e 28b8 cebd 7721 073e 64c4 fb3d
00000070: 0465 043e 56d4 cd3d 5506 5abd 466b 5d3d

weight f4 [1, 32]
-0.2827746 0.28538597 -0.0467755 -0.069753535 0.22749102 -0.019875726 -0.28146148 0.27541763
-0.30516332 -0.31133005 0.20939448 -0.25281632 0.1369991 -0.18336411 -0.072663225 0.22533374
0.20767081 -0.28107902 0.31822345 -0.20442656 0.1420533 0.25023732 -0.366674 -0.04051936
0.2929397 0.28849354 0.3182534 0.24304081 0.17048313 0.15587947 -0.25511628 0.20150122
00000000: d5c7 90be 1c1e 923e ab97 3fbd f1da 8ebd
00000010: 68f3 683e 6bd2 a2bc b81b 90be 8a03 8d3e
00000020: 5e3e 9cbe a766 9fbe 826b 563e 2471 81be
00000030: 7e49 0c3e cdc3 3bbe 75d0 94bd e3bd 663e
00000040: a8a7 543e 97e9 8fbe 2fee a23e 3255 51be
00000050: 6c76 113e 1b1f 803e b2bc bbbe a1f7 25bd
00000060: 31fc 953e 6db5 933e 1cf2 a23e b1df 783e
00000070: 2193 2e3e de9e 1f3e 9a9e 82be 5656 4e3e
