saved_agents/best124/reward_test.pt (torch, 42327 bytes, 5 tensors)

weight f4 [32, 236]
-0.014930539 -0.031949013 -0.0026402562 0.03737511 -0.063011505 0.34394437 -0.026903568 0.015135798
0.18821952 -0.061885186 -0.05150277 -0.1031678 0.011475778 -0.0017251458 0.056225132 -0.07563253
0.021532468 0.13260144 -0.21409893 0.09016807 0.1583785 -0.015657913 -0.05655889 -0.076001115
-0.0026146385 -0.037905257 -0.005802873 0.2236381 0.045246623 0.10896721 -0.37729418 0.017025406
0.039700992 -0.20450288 0.09487958 -0.00077733945 -0.2190617 0.0043758936 0.040894892 0.060689986
-0.06255909 -0.010482055 0.060520995 -0.09727187 0.0053584455 0.04841955 -0.0051905517 0.024585221
-0.09014537 -0.051722765 -0.023227338 -0.04082655 -0.07187041 -0.18332393 0.024529457 0.0011727926
-0.029219363 -0.10179015 0.008371382 -0.039600268 0.21256739 -0.11548099 0.00053072243 0.10042475
-0.0534495 0.007903117 -0.14357367 0.04642682 0.045862816 -0.060313836 -0.17121337 0.11026234
0.07857461 -0.18241817 0.115389 0.09971286 0.0050990717 -0.004471262 -0.040679224 0.05222994
0.005955398 -0.06475684 0.3154578 0.014683122 0.11877983 -0.41449738 0.044659298 -0.07347698
-0.19776863 -0.04405951 -0.024596237 -0.33814952 0.06405517 -0.017651128 0.08601305 0.034962706
0.009347269 -0.04492376 0.049825277 0.037799824 -0.040444557 0.029489264 0.046487942 0.06631602
0.0001315459 -0.03599313 -0.017754357 -0.19462545 -0.19144648 -0.094788015 -0.19062513 0.020972297
0.0020276336 -0.27145958 -0.042699523 0.4062676 -0.23679464 0.042687833 0.23695487 -0.3428844
-0.07379481 -0.05426908 0.023024375 0.031339467 0.03803954 -0.18066542 0.11138036 0.13787541
-0.22070828 0.12926936 0.16403702 -0.14552218 -0.07640797 0.005329001 0.09523387 0.03954655
0.098600194 0.2300815 -0.044265993 0.22734143 -0.40764076 -0.0037847604 0.014750346 -0.3487473
-0.030671755 0.027237032 -0.40164414 0.023813644 0.013621527 0.12117268 -0.033223886 0.00016173416
0.013618311 -0.028753381 -0.044458155 0.08017023 0.13518043 -0.008064866 -0.044463996 -0.10021481
-0.05660598 -0.080302894 -0.07248829 -0.20668273 0.10629139 0.023795472 0.09115927 -0.04885909
0.043612193 0.08119188 -0.27068242 -0.016058167 0.009791893 -0.39642438 0.056933008 -0.0015538824
-0.109074 -0.22333059 -0.08404763 -0.16597201 -0.13661726 -0.03607665 -0.015402362 0.13819683
-0.26599467 -0.053686634 0.17604786 0.09071362 0.024677727 0.024394225 0.058361508 -0.045565333
0.012125439 -0.15091275 0.110694356 -0.0020324904 -0.023152383 0.0727373 0.018917318 -0.017892402
-0.13443491 -0.026805982 -0.009223034 -0.32860178 -0.039976485 0.19139813 0.021458345 -0.11324157
0.0118578905 -0.07227353 0.038229037 -0.05528412 0.055609666 0.12485371 0.051630467 -0.16029596
-0.12414544 -0.02523295 0.09436751 0.07024584 0.029768744 -0.17311084 0.022691064 0.006698626
0.062179238 0.006790643 0.05508165 0.051326636 0.0685031 -0.24489616 0.16918139 0.057273768
-0.036067575 0.067220226 0.016955238 -0.08725851 -0.06609121 -0.008396001 0.07939745 -0.09883122
0.0053824014 0.03630244 -0.13441849 -0.015729735 0.046901204 -0.0038111135 0.013616544 0.07894426
-0.11910085 0.04971799 -0.04369162 0.060243215 0.018367464 -0.056521256 -0.01773048 -0.03383468
00000000: 389f 74bc f8dc 02bd 2608 2dbb a516 193d
00000010: 2d0c 81bd 7a19 b03e df64 dcbc 23fc 773c
00000020: 9ebc 403e 527b 7dbd 92f4 52bd a449 d3bd
00000030: e704 3c3c 4a1e e2ba 534c 663d 3ae5 9abd
00000040: dc64 b03c acc8 073e c03c 5bbe 09aa b83d
00000050: f92d 223e 0645 80bc 4baa 67bd 79a6 9bbd
00000060: 5b5a 2bbb 8b42 1bbd 0726 bebb 6301 653e
00000070: 8654 393d 332a df3d b42c c1be dd78 8b3c
00000080: 829d 223d 3469 51be 3a50 c23d 5ec6 4bba
00000090: b651 60be a863 8f3b 6781 273d 1096 783d
000000a0: fb1e 80bd edbc 2bbc dde4 773d 7936 c7bd
000000b0: e695 af3b 9453 463d 8115 aabb f266 c93c
000000c0: 239e b8bd 40db 53bd 4247 bebc be39 27bd
000000d0: cb30 93bd 45b9 3bbe 00f2 c83c 64b8 993a
000000e0: 725d efbc 5b77 d0bd 1f28 093c e433 22bd
000000f0: 44ab 593e 4c81 ecbd 2e20 0b3a 7eab cd3d
00000100: dded 5abd 137c 013c fa04 13be 0d2a 3e3d
00000110: a6da 3b3d a40b 77bd 8f52 2fbe 39d1 e13d
00000120: baeb a03d d4cb 3abe 1151 ec3d 4236 cc3d
00000130: 1d16 a73b aa83 92bb 429f 26bd 10ef 553d
00000140: 8025 c33b 3c9f 84bd af83 a13e 7a91 703c
00000150: d742 f33d 0039 d4be abec 363d 197b 96bd
00000160: dc83 4abe bf77 34bd 0c7e c9bc ef21 adbe
00000170: 5b2f 833d 1999 90bc 9c27 b03d 0e35 0f3d
00000180: 4a25 193c fa01 38bd 9715 4c3d fdd3 1a3d
00000190: 31a9 25bd 7893 f13c 246a 3e3d b2d0 873d
000001a0: 95ef 0939 886d 13bd 9671 91bc e54b 47be
000001b0: 8c0a 44be 3820 c2bd 3c33 43be 18ce ab3c
000001c0: 0ce2 043b c0fc 8abe b2e5 2ebd 4f02 d03e
000001d0: 4b7a 72be 70d9 2e3d 4ca4 723e 8b8e afbe
000001e0: bc21 97bd 4149 5ebd 9d9d bc3c d05d 003d
000001f0: 59cf 1b3d 5b00 39be 631b e43d 362f 0d3e
00000200: 5a01 62be 305f 043e 52f9 273e c403 15be
00000210: c87b 9cbd e79e ae3b fa09 c33d 90fb 213d
00000220: e6ee c93d 7c9a 6b3e 4250 35bd 31cc 683e
00000230: 4ab6 d0be be09 78bb 6fab 713c 028f b2be
00000240: 5543 fbbc 3220 df3c 4da4 cdbe d514 c33c
00000250: d32c 5f3c 6229 f83d c515 08bd 2f97 2939
00000260: 561f 5f3c 368c ebbc c119 36bd 4a30 a43d
00000270: bd6c 0a3e 8022 04bc e11f 36bd 6c3d cdbd
00000280: acdb 67bd d875 a4bd be74 94bd a3a4 53be
00000290: 4daf d93d b9ee c23c b6b1 ba3d 7820 48bd
000002a0: b3a2 323d ee47 a63d e396 8abe 6b8c 83bc
000002b0: 2d6e 203c 23f8 cabe 9632 693d a4ab cbba
000002c0: 3062 dfbd c6b0 64be 2a21 acbd 91f4 29be
000002d0: 65e5 0bbe 1cc5 13bd 305a 7cbc 7883 0d3e
000002e0: 7430 88be 84e6 5bbd e445 343e 10c8 b93d
000002f0: f228 ca3c 66d6 c73c 7a0c 6f3d b7a2 3abd
00000300: c7a9 463c df88 1abe b9b3 e23d 8833 05bb
00000310: 11aa bdbc 4bf7 943d 7ef8 9a3c 1693 92bc
00000320: 4ea9 09be 3898 dbbc 351c 17bc 7e3e a8be
00000330: 62be 23bd dffd 433e 69c9 af3c 32eb e7bd
00000340: 9947 423c 2504 94bd 0d96 1c3d 9a71 62bd
00000350: f6c6 633d 4db3 ff3d 787a 533d a024 24be
00000360: f73f febd 55b5 cebc c143 c13d 0ddd 8f3d
00000370: 95dd f33c f843 31be 9ce2 b93c 2680 db3b
00000380: a8af 7e3d 0b84 de3b 4c9d 613d e13b 523d
00000390: 5a4b 8c3d 0fc6 7abe e33d 2d3e e697 6a3d
000003a0: 98bb 13bd c2aa 893d b6e5 8a3c 97b4 b2bd
000003b0: d45a 87bd 618f 09bc 219b a23d 0668 cabd
000003c0: db5e b03b deb1 143d 00a5 09be a5db 80bc
000003d0: 7a1b 403d e0c3 79bb ed17 5f3c 87ad a13d
000003e0: 25eb f3bd 17a5 4b3d fcf5 32bd 97c1 763d
000003f0: 5d77 963c d582 67bd 833f 91bc 3c96 0abd

bias f4 [32]
0.0044493917 0.02152257 0.015007222 0.055066507 0.016941253 0.064229995 0.017309789 0.00792703
0.022804702 -0.00919425 -0.013805127 -0.003515565 -0.07382049 -0.042492 -0.03130663 -0.04915896
-0.0043815756 0.02883647 -0.050812744 0.021197837 -0.0041406425 0.074483655 -0.06381695 -0.015301089
0.07830037 -0.01502527 -0.028395427 0.08485603 -0.03054406 0.06054458 0.077361204 0.04414363
00000000: 34cc 913b 1a50 b03c dae0 753c 6b8d 613d
00000010: 62c8 8a3c 048b 833d 42cd 8d3c 60e0 013c
00000020: edd0 ba3c 7ba3 16bc e62e 62bc 6565 66bb
00000030: 322f 97bd 170c 2ebd 613b 00bd e85a 49bd
00000040: 5293 8fbb 763a ec3c 0621 50bd 16a7 ad3c
00000050: 3aae 87bb e38a 983d 76b2 82bd 6bb1 7abc
00000060: f25b a03d 8d2c 76bc 879d e8bc 00c9 ad3d
00000070: 8937 fabc 98fd 773d 8d6f 9e3d f3cf 343d

weight f4 [32, 32]
-0.31740904 -0.025061183 -0.023846082 -0.20315321 -0.24401975 0.07821331 0.22256994 0.03103266
-0.008557948 0.09314879 -0.06569082 -0.1042592 0.12227982 0.14752263 0.23607138 0.34199175
0.1287103 0.070892386 0.14640857 -0.21912673 0.14859125 -0.11276415 -0.022906141 0.086224526
-0.019083377 0.029868528 0.16633742 -0.0775064 0.057735987 0.101826854 -0.32004586 -0.21794614
-0.4087803 0.16390967 -0.003245979 -0.25333446 -0.20053647 0.036077887 0.21757343 -0.0657922
0.032965757 0.10222246 -0.17293538 0.0068971165 0.06980659 -0.0052419878 0.03524503 0.026838109
-0.10423244 -0.23518117 0.2465237 -0.2175323 0.1570871 0.08893084 -0.13754347 -0.09744801
-0.2723979 -0.058584403 0.12224562 -0.18313733 0.10110603 -0.004458547 -0.17751051 -0.1136778
0.28483522 -0.10183748 -0.104103275 -0.006815278 0.33739638 0.1495425 0.1373476 -0.25775665
0.12466389 0.0028974947 0.40245965 -0.05605247 0.0020134065 -0.25212228 -0.29987413 -0.105579264
-0.10328831 -0.005106725 0.05961921 0.33359036 -0.02531661 0.15937138 0.41048226 0.14145495
0.026784083 -0.065477006 0.077305816 0.4280308 0.46056792 0.028431775 -0.22857931 0.14596765
-0.24278434 0.035673734 -0.26021364 0.16598749 -0.17285755 0.17409563 0.08266894 0.26789245
-0.10819969 0.07162755 -0.32958812 -0.25422207 0.034756955 0.1183139 0.20264323 0.33766904
0.12555936 -0.20206673 0.22296888 -0.09125253 0.11787363 -0.19333975 0.01213925 0.008844932
-0.21307677 -0.11814245 0.030008744 -0.250676 -0.124185756 -0.14960892 0.034328155 0.026942197
0.0065549393 -0.23726648 0.2812646 0.2929274 0.0016122925 -0.12300358 -0.17100574 0.00052809477
-0.05073447 0.02183178 0.01441093 0.22476867 -0.08804679 0.3437281 0.3208764 -0.041369103
0.14481913 0.39717457 -0.30702877 0.24964601 0.022799108 0.116903946 -0.20678702 0.16506901
-0.01786142 -0.019297408 -0.1893922 -0.13939403 -0.35861403 0.05239061 0.40331343 0.076731056
0.13928081 0.09008476 0.16270542 -0.17379972 0.19181886 -0.088755466 -0.07933576 0.0061692917
-0.15178965 -0.05669586 0.22806934 0.029387958 0.1894887 -0.24529876 0.0379144 -0.29168603
-0.011960883 0.12490537 0.04438676 0.05123364 0.2595413 -0.0063566784 0.3026842 -0.08553006
-0.06638184 0.106138654 -0.06646389 0.04797718 0.27716705 0.1867055 -0.029643726 0.15758923
0.29667574 -0.0765989 -0.092316896 -0.137634 0.07595792 0.107558794 0.05800542 -0.19792092
0.009700146 0.033731386 0.37720528 0.060830988 -0.104613684 -0.19004825 -0.06801129 -0.13323049
0.1246114 -0.0045975633 0.03791768 0.15354179 0.18304957 0.2657951 0.26217613 -0.011270722
-0.050838094 -0.13229688 0.10404846 0.37284717 0.19414708 0.048445646 0.022924572 -0.066529036
0.21697335 -0.10642316 -0.08921269 -0.13595824 0.33364418 0.11893224 -0.05389978 -0.041468464
-0.08168815 -0.04055533 0.3124067 0.052339356 -0.017132288 -0.21792734 -0.007272511 -0.20810163
0.12367816 -0.015635679 0.026668958 0.3480819 0.117900535 0.13832404 0.28594592 0.08588821
-0.0021143972 0.13489231 0.001611385 0.3987843 0.16919558 0.09428478 0.00015504559 -0.12706457
00000000: 7083 a2be 1c4d cdbc dc58 c3bc 6507 50be
00000010: 50e0 79be 4d2e a03d 60e9 633e 3438 fe3c
00000020: a336 0cbc cbc4 be3d e988 86bd d985 d5bd
00000030: d86d fa3d 2c10 173e b2bc 713e 8b19 af3e
00000040: a2cc 033e 0730 913d 21ec 153e c262 60be
00000050: 4e28 183e e4f0 e6bd a9a5 bbbc 7c96 b03d
00000060: be54 9cbc d8ae f43c 5b54 2a3e adbb 9ebd
00000070: 927c 6c3d 998a d03d 0ddd a3be 462d 5fbe
00000080: a74b d1be f0d7 273e 7eba 54bb 0eb5 81be
00000090: 6f59 4dbe 68c6 133d 92cb 5e3e 10be 86bd
000000a0: 1a07 073d 025a d13d f915 31be 3501 e23b
000000b0: c2f6 8e3d fbc4 abbb 185d 103d 98db db3c
000000c0: d177 d5bd 55d3 70be b570 7c3e cac0 5ebe
000000d0: 71db 203e 5f21 b63d 32d8 0cbe d392 c7bd
000000e0: bd77 8bbe 33f6 6fbd e95b fa3d 5a88 3bbe
000000f0: ae10 cf3d 0119 92bb 51c5 35be e8cf e8bd
00000100: ecd5 913e 2b90 d0bd 1934 d5bd b252 dfbb
00000110: 38bf ac3e ab21 193e d9a4 0c3e aef8 83be
00000120: c84f ff3d e5e3 3d3b 310f ce3e 4697 65bd
00000130: 5bf3 033b 2c16 81be 1a89 99be f139 d8bd
00000140: d288 d3bd 5056 a7bb 4633 743d 5bcc aa3e
00000150: c764 cfbc 4032 233e bb2a d23e 91d9 103e
00000160: 4b6a db3c cf18 86bd 8352 9e3d da26 db3e
00000170: 8fcf eb3e c1e9 e83c b210 6abe 8b78 153e
00000180: 759c 78be 9f1e 123d b93a 85be a0f8 293e
00000190: 9201 31be 2046 323e 554e a93d 3329 893e
000001a0: cd97 ddbd 77b1 923d c6bf a8be 6529 82be
000001b0: 4f5d 0e3d 8f4e f23d b581 4f3e f5e2 ac3e
000001c0: a292 003e 95ea 4ebe f451 643e 9be2 babd
000001d0: bb67 f13d dbfa 45be b4e3 463c 55ea 103c
000001e0: cc30 5abe abf4 f1bd e6d4 f53c 9b58 80be
000001f0: 1a55 febd 1533 19be ae9b 0c3d e2b5 dc3c
00000200: d1ca d63b fcf5 72be ea01 903e 95fa 953e
00000210: 8f53 d33a 4de9 fbbd 211c 2fbe d76f 0a3a
00000220: f3ce 4fbd 90d8 b23c d21b 6c3c c229 663e
00000230: e051 b4bd 21fd af3e e949 a43e a672 29bd
00000240: 774b 143e 775a cb3e e032 9dbe 34a3 7f3e
00000250: 32c5 ba3c 566b ef3d fabf 53be da07 293e
00000260: 1d52 92bc 9915 9ebc 07f0 41be 4fbd 0ebe
00000270: 429c b7be 8997 563d 197f ce3e 2c25 9d3d
00000280: a19f 0e3e 5c7e b83d 409c 263e 8ef8 31be
00000290: 2a6c 443e 6dc5 b5bd c97a a2bd c527 ca3b
000002a0: bf6e 1bbe eb39 68bd 028b 693e 04bf f03c
000002b0: 5309 423e 992f 7bbe 214c 1b3d df57 95be
000002c0: 94f7 43bc 63ce ff3d e4ce 353d 5eda 513d
000002d0: 99e2 843e af4b d0bb 6cf9 9a3e 622a afbd
000002e0: 34f3 87bd 395f d93d 381e 88bd b883 443d
000002f0: d7e8 8d3e ba2f 3f3e 66d7 f2bc 125f 213e
00000300: e2e5 973e e2df 9cbd a410 bdbd edef 0cbe
00000310: d38f 9b3d c947 dc3d 1797 6d3d c8ab 4abe
00000320: 5ced 1e3c ec29 0a3d 0d21 c13e ea29 793d
00000330: b33f d6bd 029c 42be 8149 8bbd 936d 08be
00000340: 4334 ff3d 28a7 96bb 924f 1b3d 0f3a 1d3e
00000350: 5971 3b3e 4c16 883e f33b 863e d6a8 38bc
00000360: 9b3b 50bd d578 07be 5c17 d53d d3e5 be3e
00000370: 7ece 463e f16e 463d 50cc bb3c 6040 88bd
00000380: 432e 5e3e 63f4 d9bd 25b5 b6bd a338 0bbe
00000390: 69d3 aa3e bf92 f33d 04c6 5cbd d6da 29bd
000003a0: 1e4c a7bd 591d 26bd c5f3 9f3e cb61 563d
000003b0: 0359 8cbc 5828 5fbe 3e4e eebb 9818 55be
000003c0: fa4a fd3d 6516 80bc dc78 da3c ca37 b23e
000003d0: d675 f13d d1a4 0d3e 8167 923e 28e6 af3d
000003e0: b391 0abb 3621 0a3e 1c35 d33a 752d cc3e
000003f0: 9b41 2d3e 6118 c13d bc93 2239 371d 02be

bias f4 [32]
-0.040384457 -0.15921122 0.15538241 -0.044486206 0.02010566 0.1651396 0.13368228 0.042353585
-0.011480988 -0.06736439 0.17096479 0.061664995 0.034015946 0.07232866 0.15124476 0.064258866
-0.08979831 0.04024517 0.060565606 0.1524937 0.10943512 0.029272499 -0.0054939985 0.14316323
0.06637518 0.106355146 0.029308885 0.1452175 -0.03879026 0.11348424 0.05331594 -0.022095313
00000000: 2c6a 25bd 4408 23be 911c 1f3e 2b37 36bd
00000010: a0b4 a43c 5b1a 293e 02e4 083e f47a 2d3d
00000020: c11a 3cbc 57f6 89bd 6511 2f3e 6f94 7c3d
00000030: 4e54 0b3d 0c21 943d e8df 1a3e 279a 833d
00000040: 2de8 b7bd 1fd8 243d a413 783d 4f27 1c3e
00000050: 851f e03d e1cc ef3c 0007 b4bb 6299 123e
00000060: b6ef 873d bad0 d93d 3019 f03c e5b3 143e
00000070: 89e2 1ebd 6d6a e83d d161 5a3d 3b01 b5bc

weight f4 [1, 32]
-0.3236623 -0.42567587 0.20499037 -0.31038615 -0.48057777 0.16969228 0.23039803 0.2357067
-0.44778287 -0.29775882 0.044880558 0.19659537 -0.45190516 -0.3175161 0.249991 -0.37949228
0.22245401 -0.22156702 -0.31328875 -0.32250157 0.15133879 -0.2579988 -0.32512006 0.26830566
0.19125459 -0.21722569 -0.2542104 0.24900384 -0.20982476 0.32947093 -0.2981649 -0.32584962
00000000: 11b7 a5be 30f2 d9be ffe8 513e efea 9ebe
00000010: 4a0e f6be d0c3 2d3e 76ed 6b3e 195d 713e
00000020: cc43 e5be d873 98be add4 373d 4c50 493e
00000030: 1d60 e7be 7891 a2be a4fd 7f3e d04c c2be
00000040: fcca 633e 77e2 62be 6267 a0be ed1e a5be
00000050: 8ef8 1a3e 6b18 84be 2376 a6be 5c5f 893e
00000060: 3ed8 433e 6970 5ebe de27 82be ddfa 7e3e
00000070: 4ddc 56be 6ab0 a83e 12a9 98be c3d5 a6be
