saved_agents/best134/reward_test.pt (torch, 42327 bytes, 5 tensors)

weight f4 [32, 236]
0	0xbd8ca31b	-0.068670474
1	0x3c9757d9	0.018474506
2	0xbe0d053a	-0.13771525
3	0xbe1cdb0b	-0.15317933
4	0x3cad37a7	0.021144701
5	0xbdf04c82	-0.11733343
6	0xbe1401db	-0.14453833
7	0x3d5da67f	0.05411386
8	0x3d25e844	0.04050471
9	0xbdaa3abe	-0.083119854
10	0xba23de6d	-0.00062511006
11	0xbdb9fc91	-0.09081376
12	0xbd2d9e24	-0.042387143
13	0x3cf52b82	0.029927973
14	0x3d808f52	0.06277336
15	0x3c0ed92c	0.00871877
16	0xbc9102c8	-0.017701522
17	0xbd0aef36	-0.033919536
18	0xbe4b571a	-0.19857445
19	0xbd716b01	-0.058939938
20	0xbc91b9fb	-0.017788878
21	0xbbea341f	-0.0071473266
22	0x3d84a531	0.0647682
23	0xbe0148db	-0.12625448
24	0xbdad37df	-0.08457922
25	0x3c1a8035	0.009429981
26	0xbd977ded	-0.07397065
27	0x3c528d40	0.012851059
28	0xbb1d6ac8	-0.0024019945
29	0xbe01164b	-0.1260616
30	0xbd584a6b	-0.052805346
31	0x3cea0c81	0.028570415
32	0x3c7d718e	0.015468968
33	0x3dd15468	0.10221177
34	0xbd1f68b5	-0.038918216
35	0x3b4d4e8d	0.0031327337
36	0x3c146093	0.009056228
37	0xbd9d216d	-0.07672391
38	0x3d931261	0.0718124
39	0xbd20fe14	-0.039304808
40	0x3c5ccc12	0.0134763885
41	0xbd94e3a1	-0.07269979
42	0xbcf1953b	-0.029490104
43	0x3d77576e	0.060386114
44	0xbd8238e4	-0.06358507
45	0xbd4cf494	-0.050037935
46	0x3ca6efe7	0.020378066
47	0x3c367d2d	0.011138243
48	0x3d6410db	0.055680137
49	0xbdca5228	-0.09878951
50	0x3c1e25c5	0.00965256
51	0x3d83b930	0.06431806
52	0xbdb4641e	-0.08808158
53	0xbdb0e5a1	-0.08637548
54	0xbe18b828	-0.14914
55	0xbd170c38	-0.036876887
56	0x3cdecdd8	0.027197763
57	0x3bcea38d	0.006306118
58	0xbd83f836	-0.06443827
59	0xbba82325	-0.0051311427
60	0xbce253fb	-0.027627936
61	0xbd955b5d	-0.07292817
62	0x3cf3c0ef	0.029755084
63	0x3e003fdd	0.12524362
64	0xbe0c1798	-0.13680875
65	0x3d16b3de	0.03679263
66	0xbd4b72a2	-0.04966987
67	0xbd28e6cd	-0.041235734
68	0x3c40f7fa	0.011777872
69	0x3db1dc24	0.086845666
70	0xbd2273ae	-0.039661102
71	0xbd6b2769	-0.05741063
72	0x3cedd3bd	0.029031629
73	0xbe218c12	-0.15776089
74	0xbcdfe0b9	-0.027328836
75	0xbd10916f	-0.035294946
76	0xbd8e4959	-0.06947584
77	0x3acc2d43	0.0015577454
78	0x3c8bfc7d	0.01708817
79	0xbcd9c473	-0.026582932
80	0xbc1a53be	-0.00941938
81	0xbd36c0b7	-0.04461738
82	0x3d69ae70	0.057051122
83	0xbd7522f0	-0.059847772
84	0xbd2560aa	-0.04037539
85	0xbcae1fa1	-0.021255316
86	0x3d595f20	0.053069234
87	0x3dcdb2bd	0.10043857
88	0x3dc31718	0.09525889
89	0xbc031f0d	-0.008003009
90	0x3dbb90dc	0.09158489
91	0xbc161e72	-0.009162532
92	0xbd574272	-0.0525536
93	0x3e098b5f	0.13432072
94	0xbd98cede	-0.07461332
95	0xbd54db12	-0.051966734
96	0xbc8345ec	-0.016024552
97	0xbd8e2913	-0.06941428
98	0x3c887df6	0.016661625
99	0xbddd5caf	-0.108086936
100	0xbc48e1da	-0.012260878
101	0x3ba3cda1	0.004998878
102	0xbd99f2e3	-0.0751703
103	0x3dc62e85	0.09676842
104	0xbd8a4702	-0.06751825
105	0xbd62419d	-0.055238355
106	0xbd0302e2	-0.03198517
107	0xbd1da7a3	-0.03848995
108	0xbe03eb56	-0.12882742
109	0xbda5a9c3	-0.0808902
110	0xbd668bed	-0.056285787
111	0xbca8fee5	-0.020629356
112	0x3cc1f1ea	0.023674924
113	0xbe0dfbe0	-0.13865614
114	0x3d2a5c3e	0.041591875
115	0xbd45b1ba	-0.048265196
116	0xbdfe6621	-0.12421823
117	0xbc3acf05	-0.011401896
118	0x3e012422	0.1261144
119	0xbdbdf7c7	-0.092757754
120	0x3b289c3d	0.002572789
121	0xbdb3c44a	-0.087776735
122	0xbcfad5d1	-0.030619534
123	0x3dc0ca6e	0.094136104
124	0x3dbb002b	0.091308914
125	0x3d899c79	0.06719298
126	0x3cfdc894	0.030979432
127	0x3dd1ade9	0.10238249
128	0xbdcae631	-0.09907187
129	0x3c632945	0.01386482
130	0x3d8e3b5f	0.06944918
131	0xbbc8ca97	-0.006127666
132	0x3ccbdfc6	0.024886977
133	0x3c7dc6d2	0.015489297
134	0xbbf80095	-0.0075684288
135	0x3ca07bea	0.019590337
136	0x3d10d7f0	0.035362184
137	0x3d7257be	0.05916571
138	0x3dbc1c56	0.09185092
139	0x3dc69617	0.09696596
140	0xbc5962a6	-0.0132681485
141	0x3d00cd78	0.03144595
142	0x3d741726	0.05959239
143	0x3d6fe239	0.058565352
144	0x3d745361	0.05964983
145	0x3de67fce	0.112548456
146	0x3d4e834c	0.050418183
147	0x3dab1bcf	0.083549134
148	0x3e2c52d8	0.16828477
149	0xbd72e697	-0.05930194
150	0xbc943afb	-0.01809453
151	0xbd6a10a2	-0.05714477
152	0xbdbdd223	-0.09268596
153	0xbdbf5f45	-0.09344343
154	0xbe1054e0	-0.14094877
155	0xbd2d0187	-0.042237785
156	0xbd9fdf5e	-0.07806276
157	0xbe07eb53	-0.13273363
158	0xbd71c1d3	-0.059022736
159	0xbe0ab1c5	-0.13544376
160	0xbd7c0b14	-0.061534002
161	0xbd1d2e23	-0.038374078
162	0xbd34587b	-0.044029694
163	0xbdf024fe	-0.11725806
164	0xbd760e30	-0.060072124
165	0xbd8c29d1	-0.06843913
166	0xbd12ccba	-0.035839774
167	0xbd81d165	-0.06338767
168	0x3e4609fd	0.19339748
169	0xbd8c0fbd	-0.06838939
170	0xbdace9de	-0.08443044
171	0x3d9bb088	0.0760203
172	0x3cc70445	0.024294028
173	0x3dce27f6	0.10066216
174	0x3d6b4d54	0.057446793
175	0x3d6b3924	0.05742754
176	0x3dec4327	0.11536246
177	0x3e074a7f	0.13212012
178	0x3d983fcd	0.07434044
179	0xbd95a295	-0.07306401
180	0xbdcea336	-0.10089724
181	0x3db3396d	0.087511875
182	0x3d1658e2	0.03670586
183	0x3dfd6076	0.12371914
184	0xbe4972ac	-0.1967265
185	0x3dcd5454	0.1002585
186	0xbc8f92f4	-0.017526127
187	0xbd423b53	-0.047419857
188	0xb9a5e740	-0.00031643547
189	0xbb3e11d0	-0.0029002316
190	0x3dab3ca8	0.08361179
191	0x3dcb8a76	0.09938519
192	0xbcf4c708	-0.029880062
193	0x3ca930db	0.020653179
194	0xbd465e43	-0.04842974
195	0x3df9a6db	0.12190028
196	0xbd602d08	-0.054730445
197	0xbe43b30c	-0.1911127
198	0x3d3a6d3b	0.045514327
199	0xbcde2c61	-0.02712077
200	0x3d5ef2bc	0.05443071
201	0x3e4f1f35	0.20226748
202	0x3d840418	0.06446093
203	0x3d805012	0.06265272
204	0x3dbecb08	0.09316069
205	0x3d4a68c8	0.049416333
206	0xbd0608d7	-0.032723274
207	0xbce6c4d5	-0.028170029
208	0xbe3c0af5	-0.18363555
209	0x3d3762d6	0.04477199
210	0x3d525de1	0.05135906
211	0xbd2433ad	-0.040088344
212	0x3ca59d3a	0.020216573
213	0x3c0c4ad0	0.008562759
214	0x3cb5f602	0.022212032
215	0xbc2737b9	-0.010206156
216	0xbdb716f2	-0.08939923
217	0xbcaa5e22	-0.02079684
218	0xbd6de7d3	-0.058082413
219	0xbb330038	-0.0027313363
220	0x3d843b80	0.06456661
221	0xbc8dee0d	-0.017325426
222	0x3de50f12	0.11184515
223	0x3d0ed48e	0.034870677
224	0x3b1b5706	0.0023702993
225	0x3b768530	0.0037616007
226	0xbd2c001c	-0.04199229
227	0xbe1d59e4	-0.15366322
228	0xbd03b871	-0.03215832
229	0x3d4936b2	0.049124427
230	0xbd5c116d	-0.053727556
231	0x3e0c7ff4	0.13720685
232	0x3ab8f8e3	0.001411226
233	0x3d93ab5e	0.0721042
234	0x3ce6cde0	0.02817434
235	0xbe969c10	-0.2941594
236	0x3d96d316	0.0736448
237	0xbc0425f3	-0.008065688
238	0x3dcc99e8	0.09990293
239	0xbd0dbcad	-0.034603763
240	0x3c298a4e	0.010347916
241	0x3d316f11	0.04331881
242	0xbd1cd570	-0.038289487
243	0x3cd5aac6	0.026082408
244	0x3beaad77	0.007161792
245	0x3d695ce4	0.056973353
246	0xbd76b923	-0.060235154
247	0x3d7c6d88	0.061627895
248	0x3de99eeb	0.11407264
249	0xbd2153bd	-0.0393865
250	0xbd009be1	-0.031398658
251	0x3d440e7b	0.047865372
252	0xbb8ab176	-0.004232581
253	0xbce54a93	-0.027989661
254	0xbda6951f	-0.08133911
255	0xbda37774	-0.07981768

bias f4 [32]
0	0xbcb8076b	-0.022464475
1	0x3db14a17	0.0865671
2	0x3dec9f0d	0.11553774
3	0x3d885d07	0.066583686
4	0x3de193c4	0.11014512
5	0xbc2fcf97	-0.010730646
6	0x3dc6970d	0.096967794
7	0x3c11f590	0.008908644
8	0xbab18238	-0.0013542837
9	0x3d55e0c2	0.0522163
10	0x3cebbbf7	0.028776152
11	0xbbd1df7e	-0.006404816
12	0x3d21c21e	0.039491765
13	0xbdabb27d	-0.08383653
14	0xbd8d9de9	-0.069148846
15	0xbc7c6c78	-0.01540672
16	0x3e1e7c6b	0.15477149
17	0x3dac3eb4	0.08410397
18	0x3e06d975	0.13168891
19	0x3d13c684	0.03607799
20	0x3df2d7a8	0.118575394
21	0x3d29c5ca	0.041448392
22	0x3c8c919e	0.01715928
23	0xbbb9a0ec	-0.0056649353
24	0x3d4af96c	0.049554273
25	0xbbe3c343	-0.0069507672
26	0xbd7742bd	-0.06036638
27	0xbc4830df	-0.012218683
28	0x3e234d1f	0.15947388
29	0xbc49fcf8	-0.012328379
30	0xbc214a55	-0.009844382
31	0x3cbbaf8e	0.02291086

weight f4 [32, 32]
0	0xbc848fdb	-0.016181877
1	0xbc8d78e2	-0.017269555
2	0xbe02e9fb	-0.12784569
3	0x3c3f2fb3	0.011669087
4	0xbe5c6cd6	-0.21525893
5	0x3e261077	0.16217218
6	0xbe9ae464	-0.30252373
7	0xbe47603c	-0.19470304
8	0xbe595715	-0.21224625
9	0xbe0ba09e	-0.1363549
10	0x3cfe8127	0.031067444
11	0x3d7423a1	0.05960429
12	0x3d02f522	0.031972058
13	0x3d1758a0	0.036949754
14	0x3e05a52a	0.13051286
15	0x3dae6335	0.08515016
16	0xbe8e8759	-0.27837637
17	0x3e6aa4bd	0.22914405
18	0xbd97c872	-0.07411279
19	0xbe8b1c12	-0.27169853
20	0xbd6dd01a	-0.05805979
21	0xbe5cdcd2	-0.21568611
22	0x3d36c868	0.044624716
23	0xbdbbc8dd	-0.09169171
24	0xbd3bebf9	-0.045879338
25	0x3ddc09d9	0.10744066
26	0x3e9e95ca	0.30973655
27	0x3e2b3044	0.1671763
28	0xbe80cae7	-0.25154802
29	0x3dff36a7	0.12461596
30	0xbe075936	-0.13217625
31	0xbe2f4bb5	-0.17118724
32	0x3d58da08	0.052942306
33	0xbe301f89	-0.1719953
34	0x3dd9c8e4	0.1063402
35	0xbe0bd57a	-0.13655654
36	0x3d9e3069	0.07724077
37	0xbc879c2f	-0.016553966
38	0xbe28ab48	-0.16471589
39	0xbd129b2e	-0.035792522
40	0x3eabe52d	0.33573285
41	0x3e743fd0	0.23852468
42	0x3d771b7e	0.060328953
43	0x3d660d91	0.05616528
44	0x3e1a5f84	0.15075499
45	0x3e12f0e0	0.14349699
46	0xbd9f8e76	-0.07790844
47	0xbe3b62c7	-0.182994
48	0x3e8c57f5	0.27410856
49	0x3c83b6dc	0.016078405
50	0x3e87214f	0.263926
51	0x3df090d3	0.11746373
52	0xbbcca745	-0.006245526
53	0x3e1ee418	0.15516698
54	0xbcb5919e	-0.022164162
55	0xbda879d6	-0.08226363
56	0x3de914c4	0.11380914
57	0x3d86a076	0.06573574
58	0xbdddca98	-0.10829657
59	0xbcdfde2f	-0.027327625
60	0x3d319cb1	0.043362323
61	0xbed38446	-0.41311854
62	0xbdbbda1b	-0.0917246
63	0x3e1ee6ca	0.15517727
64	0xbdaba218	-0.08380526
65	0x3e0d6566	0.13808212
66	0x3da66f54	0.08126703
67	0xbab17e60	-0.0013541691
68	0xbdf0c296	-0.11755864
69	0xbde72380	-0.11286068
70	0x3e5e0b91	0.216841
71	0x3e9b9c85	0.30392852
72	0x3d33e283	0.04391719
73	0xbe66f7ca	-0.22555462
74	0x3bedaa13	0.0072529404
75	0xbdc5c157	-0.09656017
76	0x3e235236	0.1594933
77	0xbcaedda2	-0.021345917
78	0xbdc3fd51	-0.09569801
79	0x3d821ff7	0.06353753
80	0x3d480b8c	0.048839137
81	0xbde61709	-0.11234862
82	0xbc8b2f09	-0.016990202
83	0x3e8a9aa6	0.27071112
84	0x3dc4fc6c	0.09618458
85	0x3e29df42	0.16589072
86	0xbe4d5039	-0.20050134
87	0xbd4bfa0c	-0.04979901
88	0xbe84e250	-0.25953913
89	0x3e051e1c	0.12999767
90	0xbd3844a0	-0.04498732
91	0xbe3757ee	-0.17904636
92	0x3bcb687f	0.0062075253
93	0x3da97560	0.08274341
94	0x3eb26cf4	0.3484875
95	0x3e5f38bc	0.21798986
96	0xbdc310c1	-0.0952468
97	0x3cfd4093	0.03091458
98	0x3d8e6e12	0.06954588
99	0x3e3e96b8	0.18612182
100	0x3e3cc9f2	0.18436411
101	0x3c8ad840	0.01694882
102	0x3de8fcbf	0.113763325
103	0x3e337e33	0.1752861
104	0x3dd3dcfd	0.103448845
105	0x3e3774e2	0.17915681
106	0xbd36326d	-0.044481684
107	0xbdaea6ff	-0.08527946
108	0x3ea126c7	0.31474897
109	0x3d5eaf9d	0.054366697
110	0x3d3787e0	0.044807315
111	0xbc0d2e5b	-0.008617009
112	0x3e905070	0.2818637
113	0x3e04baf3	0.1296194
114	0x3e265996	0.16245112
115	0x3e61b8ac	0.22043103
116	0x3e71d4c6	0.23616323
117	0xbe387ddf	-0.18016766
118	0xbe0bde92	-0.13659123
119	0x3e0cf5f4	0.13765699
120	0x3e93830e	0.28810924
121	0xbe09a225	-0.1344076
122	0xbdd86e38	-0.105678976
123	0x3c929df9	0.017897593
124	0x3e869e11	0.2629247
125	0xbe3affb9	-0.18261613
126	0xbe8e2b61	-0.2776747
127	0x3d950391	0.07276071
128	0x3e251c72	0.16124132
129	0x3daca1d8	0.08429307
130	0xbdebbe7c	-0.115109414
131	0x3d28c75c	0.04120575
132	0xbdb30859	-0.087418266
133	0x3d186b57	0.037211742
134	0xbe6dbd4b	-0.23216741
135	0x3da46be8	0.08028394
136	0xbdd4ad3a	-0.10384603
137	0xbec2995b	-0.38007626
138	0x3e56e29a	0.20984879
139	0x3d0fc718	0.03510198
140	0xbe2a9bab	-0.16660945
141	0x3dd281e2	0.102786794
142	0x3df264da	0.11835642
143	0x3e1d1cff	0.15343092
144	0xbec54772	-0.3853107
145	0x3e2a1bbf	0.16612147
146	0x3c6b8455	0.014374812
147	0xbdc3ecb2	-0.095666304
148	0x3cab5c7b	0.020918122
149	0x3d09272a	0.033484615
150	0x3c24b73b	0.010053451
151	0xbe583988	-0.21115696
152	0xbc3c9166	-0.011509275
153	0x3e0d4e1e	0.1379933
154	0x3e4bb13c	0.19891828
155	0x3dc47f09	0.095945425
156	0xbde4fd96	-0.1118118
157	0x3e89782b	0.26849493
158	0x3deb8fb0	0.115020156
159	0xbe8bd80e	-0.27313274
160	0x3dbb7c4c	0.09154567
161	0xbbb7ed10	-0.005612977
162	0x3ddb4f91	0.107085355
163	0x3d716ac4	0.05893971
164	0x3dd1315f	0.10214495
165	0xbd2b8f8b	-0.04188494
166	0xbe0c89ba	-0.13724414
167	0xbd9bd930	-0.076097846
168	0x3e8800d6	0.26563138
169	0x3efd2b66	0.49447173
170	0x3d5dccc4	0.054150358
171	0xbdf3a568	-0.11896783
172	0x3e5daeed	0.2164876
173	0xbd1aa05c	-0.037750587
174	0xbc910df6	-0.017706852
175	0xbd0166f9	-0.031592343
176	0x3e4dd6fa	0.20101538
177	0x3dc49053	0.0959784
178	0x3e3916be	0.18075082
179	0x3e0fcde3	0.14043383
180	0x3d77cbb9	0.06049702
181	0x3dde3a70	0.1085099
182	0xbe5debf0	-0.21672034
183	0x3cc35c31	0.023847671
184	0x3eab4708	0.3345263
185	0x3d3d4f4a	0.046218194
186	0xbecc60d9	-0.3991764
187	0x3d8c2e6f	0.06844794
188	0x3ddeaf26	0.10873251
189	0xbecbfc4a	-0.3984092
190	0xbe5bf7f3	-0.21481304
191	0x3d538910	0.051644385
192	0xbd82a772	-0.06379594
193	0x3e90cfc6	0.2828352
194	0x3d6047f5	0.054756124
195	0xbe4b0f1c	-0.19829983
196	0x3c9171fc	0.017754547
197	0xbe1ae745	-0.15127285
198	0x3ea58d54	0.32334387
199	0x3e984dbc	0.29746807
200	0x3d6c712c	0.057725117
201	0xbcf65c14	-0.030073203
202	0xbd99c812	-0.075088635
203	0xbdf76cb7	-0.120812826
204	0x3e50c635	0.2038811
205	0xbe099504	-0.13435751
206	0x3d2e4e4c	0.04255514
207	0x3cce52af	0.025185911
208	0xbe5d3e88	-0.21605885
209	0xbe5b6756	-0.21426138
210	0xbc12a0d4	-0.008949477
211	0x3dd8d164	0.10586813
212	0x3cb71d52	0.022352848
213	0x3e40c43b	0.18824856
214	0xbe7a7b60	-0.24461126
215	0xbe014e7d	-0.12627597
216	0xbce1935a	-0.027536083
217	0x3e0721c5	0.13196476
218	0x3e81890a	0.25299865
219	0x3e1198b3	0.14218406
220	0x3dee3c27	0.11632567
221	0x3dd330c1	0.103120334
222	0x3e3adef8	0.18249118
223	0x3e637f10	0.22216439
224	0xbde68da3	-0.11257484
225	0xbe876085	-0.26440826
226	0xbd27ba83	-0.040949356
227	0xbde3cfbe	-0.11123608
228	0x3cb12b92	0.021627221
229	0xbe06476e	-0.13113186
230	0x3db0e3a7	0.08637171
231	0xbe14820d	-0.14502735
232	0x3e67288e	0.22574064
233	0x3e3e2518	0.18568838
234	0x3dcdb980	0.10045147
235	0x3d2b7967	0.041863825
236	0x3e1ec6df	0.15505551
237	0x3db028c0	0.086015224
238	0xbdce4c72	-0.100731745
239	0x3e1a10cb	0.15045469
240	0x3e122428	0.14271605
241	0x3d691ede	0.056914203
242	0xbda0fc92	-0.07860674
243	0xbe483be9	-0.19554104
244	0x3e0e3538	0.13887489
245	0x3e409c40	0.18809605
246	0xbe1e4aaa	-0.1545817
247	0xbcef2ca5	-0.029196093
248	0x3d0e88e0	0.034798503
249	0xbc52ebdc	-0.012873616
250	0xbee5a030	-0.44848776
251	0x3e82486f	0.25445887
252	0x3e01de77	0.1268252
253	0xbe005b0e	-0.12534735
254	0xbe2a3e17	-0.16625248
255	0xbd6c9f17	-0.057768907

bias f4 [32]
0	0x3dcd154a	0.10013826
1	0xbdecfce7	-0.11571675
2	0xbdec2c8f	-0.115319364
3	0x3d8c1e15	0.06841675
4	0x3e4d10c8	0.20025933
5	0x3e2c3524	0.16817147
6	0xb8a73a20	-7.974007e-05
7	0x3e3a76e4	0.18209416
8	0xbc9f226b	-0.019425591
9	0xbd9a933e	-0.075476155
10	0x3d86fc64	0.065911084
11	0x3e70a942	0.23502067
12	0x3dafc327	0.08582144
13	0x3e1bebcb	0.15226667
14	0x3da9b47a	0.08286376
15	0xbcef693f	-0.02922499
16	0xbd580f07	-0.052748706
17	0x3e390782	0.1806927
18	0x3e583aeb	0.21116225
19	0x3d106aee	0.035258226
20	0xbcd241cb	-0.025666138
21	0x3d1d3989	0.038384948
22	0x3de9f492	0.11423601
23	0x3ca7a7d8	0.020465776
24	0x3df85b4b	0.12126788
25	0x3e2c6ca2	0.16838315
26	0x3d3dce92	0.04633958
27	0xbc280e8d	-0.010257375
28	0x3df3c948	0.11903626
29	0x3d869792	0.065718785
30	0xbd1a8dc9	-0.037732873
31	0xbcb3cb85	-0.021947632

weight f4 [1, 32]
0	0xbe65952d	-0.22420187
1	0x3eaf1a18	0.34199595
2	0xbeb943e0	-0.36184597
3	0x3e86c888	0.26324868
4	0xbdfcb060	-0.12338328
5	0x3e79abe1	0.24381973
6	0xbeaa1641	-0.33220103
7	0x3e908027	0.28222772
8	0x3eb88111	0.3603597
9	0x3ea2f653	0.31828555
10	0xbedca59a	-0.43095094
11	0x3ea28f03	0.31749734
12	0xbe84984b	-0.2589744
13	0xbe1f4991	-0.15555407
14	0x3e75afec	0.2399289
15	0xbe5855a2	-0.21126416
16	0xbdee9e75	-0.11651317
17	0xbeafd0fd	-0.34339133
18	0xbe43dfc1	-0.19128324
19	0x3eae165e	0.3400144
20	0xbe9004f6	-0.28128785
21	0x3eaf7b61	0.34273818
22	0xbe8a9cdc	-0.270728
23	0xbea739f4	-0.32661402
24	0xbe76ef0e	-0.2411463
25	0x3e66842b	0.22511356
26	0xbd2dd1df	-0.042436477
27	0x3e90dbe8	0.28292775
28	0x3e7dd40c	0.2478792
29	0x3e355d38	0.17711341
30	0x3da21694	0.07914463
31	0x3e996b89	0.29964855
